encoder.onnx (onnx, 36529 bytes, 5 tensors)

model_1/dense/MatMul/ReadVariableOp:0 f4 [32, 100]
00000000: 8c1c 0f3d eecc 423c 9051 0c3e 5952 90bd
00000010: dfac afbd 4718 0cbe 3562 3a3d b3ad 6b3c
00000020: 9e98 7a3e f2e7 1f3e 9342 2ebe e769 923d
00000030: 2153 a53d 1df4 b1be 43fc c63d 2810 f6bc
00000040: c1d2 913c d85a 18bd ec38 adbc ba0e cabd
00000050: 1915 453d e88c f73d 3624 363d 62d0 553e
00000060: 30db 3a3d 6ca0 d8bc 64fd 68bd 8fd2 7e3e
00000070: 610d dbbc ee8e bc3d 672d e2bd 47ff b03c
00000080: 49b1 eabc 9648 84bd 2ec0 5cbd 8aba 433e
00000090: 8221 a1bd 155c d53e 5056 b9bd b972 0c3e
000000a0: cfc9 553e 9283 c83d 5016 2bbe 1242 b03d
000000b0: 67dc d63d 4870 87bd 73fc 8ebc b4ad 373e
000000c0: fe51 b33d 10a1 c73c 3a81 82bd a910 15bc
000000d0: e7a3 893d 2389 853c c5fe 3bbd 1070 cf3a
000000e0: fff4 893c dbf9 533d 8b28 9f3e 2e3f f2bd
000000f0: eaef e9bd ee3d 9a3d 596f 06bc 135b cabd
00000100: 9985 bd3d 9b5d 583d 29cd 2abe 6849 193d
00000110: 1085 ca3d 0af7 5a3d 1405 453c 6cf4 84bd
00000120: 502b ddbd dec3 0b3d ec2f 9a3b 2b7c ffbc
00000130: 6d74 893d 33ce 47bd 789a 56be ed81 1b3d
00000140: 5c5c b53d 345d 14be 2e26 0cbd 81e5 853d
00000150: 8236 df3c 24b7 48be dec1 993c 25cf 013e
00000160: f879 293c 21e3 593d d61f ffbc e7df 01bb
00000170: 63df 723d f826 3f3e 1181 d53d 8729 70bd
00000180: 8cb5 9e3c 55a6 823d 0980 c73d 1d72 05be
00000190: c0fd 15bd d237 e73c 393c 7e3e 7221 83bd
000001a0: c504 bf3c ce2e 16be cf12 ccbc 619c 22be
000001b0: 434a 4cbf f953 993e 9dbb 90be 2907 b43d
000001c0: e501 86bd cca5 edbe e9ea f63d ee28 acbd
000001d0: 3929 573d 5ce3 d53d 0c8a 3a3e c1d7 46be
000001e0: d7ad 9dbd 49bd 083e c214 f73d 9f38 343e
000001f0: b73b cd3d 1678 dbbf b7a8 19bd 6292 043f
00000200: bb84 4ebd eb51 4d3e b950 c1bd 4a94 d33d
00000210: 3847 32bd e9e5 103c 81d8 fdbd 0f52 393e
00000220: d4e2 e33d 3407 833f fdbb 8abd 7602 353d
00000230: 53c3 693e 1992 983c 2f05 b7bd 1eab 4cbd
00000240: f4be e03f b204 75bd 7b0c fa3c 112b f23e
00000250: 42a2 c73e 15a4 323e 9a65 423d 21dc b6bd
00000260: 39d8 e1be e836 db3b 4c12 85bd ef98 c6bc
00000270: 922b 4a3d 1189 d9bb 38c7 353f 8186 28be
00000280: d914 c83e df1e d73d ad37 08be 5265 13be
00000290: c8b8 633e 5ffb 89bd d1f2 14be 15d3 4f3e
000002a0: 40d7 1f3e 8856 a7bd b504 873d a602 083e
000002b0: 04ad b8bd a86f 843d 1b4e 0e3e daff f7bd
000002c0: 1c0a d1bd 4de1 323d 69c4 a3be 9046 b73d
000002d0: fcd7 f13d 8658 17be 6e66 9fbc 423e f23c
000002e0: cf06 fe3c e81e 88be 4050 2f3c 9ee7 5d3e
000002f0: 6a36 78bd c226 023d 0e2e 95bd 7287 8c3e
00000300: b2cd 363e 5620 693d c545 8e3d 54fe e4bd
00000310: 058a 3c3e 0e8f 573d 26b9 813d 061e 853e
00000320: bcf3 b0bc 005e 4f3d 4c8d b93e a297 3dbe
00000330: 75a0 5fbc 1dd6 c9bd 5ca5 943d 88df ffbd
00000340: 67e6 9cbf 4c59 b63e 8dd0 81be 5dae 893e
00000350: 0c88 afbd a6a4 483d 68ff 253e c603 90be
00000360: 8970 93bb 5d8e f23c c14f 073e 6ad7 9ebe
00000370: 1da0 0c3e 71ef 2d3e 94c5 513e 81fe 4c3e
00000380: 15c3 0f3e c6a4 273f ca47 08be 6409 143f
00000390: c984 36be 9689 413e 492d 29be 3af4 02bd
000003a0: fad6 65bd 7034 03be aa1f 0bbc 24bb ac3d
000003b0: f4b7 2fc0 b8f5 3c3f e0ce 2ebd 920f 923d
000003c0: 7e6a c13e 9433 843e 7637 47be 9ac5 f5bb
000003d0: 147b 95bd f7e8 52bd cc1d 6c3c 12c6 e03e
000003e0: 2e82 9e3e b35a 123e 3d16 54bc 2bad a7bd
000003f0: 1afc 1a3f 1ceb 0d3e 8d92 ebbc b1c5 ffbc
0.034939334 0.011889679 0.13702989 -0.070469566 -0.085778944 -0.13681136 0.045503814 0.014384675
0.24472281 0.15615824 -0.17017584 0.071491055 0.08072496 -0.34756556 0.09716084 -0.030037
0.01780069 -0.03719601 -0.021145307 -0.0986609 0.048115823 0.120874226 0.044468127 0.20880273
0.04561919 -0.026443683 -0.056882277 0.24885009 -0.026739778 0.09206949 -0.11043816 0.0216061
-0.02864899 -0.06459157 -0.053894214 0.19114128 -0.07867719 0.41671816 -0.09049666 0.13715638
0.20877765 0.0979072 -0.1670773 0.08606352 0.10491257 -0.06613213 -0.017454362 0.17937356
0.08755873 0.024368793 -0.06372304 -0.00909821 0.06720715 0.016300743 -0.045897264 0.0015826244
0.016840456 0.051751953 0.3108562 -0.11828457 -0.11422713 0.075313434 -0.008205258 -0.09880652
0.09253997 0.052823644 -0.16679825 0.03742352 0.09888661 0.05345825 0.0120251365 -0.06491932
-0.10799277 0.03412234 0.0047054198 -0.031187138 0.067116596 -0.04878063 -0.20957363 0.037965704
0.08855507 -0.14488679 -0.0342161 0.06537915 0.027247671 -0.19601113 0.0187692 0.12676676
0.010344021 0.053195123 -0.03114311 -0.0019817294 0.05929507 0.18667209 0.10425008 -0.058633354
0.019373678 0.063793816 0.09741218 -0.13031812 -0.036618948 0.02822486 0.2482766 -0.064028636
0.023317704 -0.14666292 -0.024911312 -0.15879966 -0.79800814 0.2994688 -0.28268138 0.08790428
-0.0654333 -0.46415555 0.12056524 -0.08406244 0.052529547 0.10443756 0.18216723 -0.19418241
-0.07699173 0.13353457 0.12064506 0.17599724 0.10021155 -1.7146022 -0.037514415 0.5178586
-0.05041955 0.2005078 -0.09439225 0.10331018 -0.04352495 0.008843877 -0.123948105 0.18097709
0.111272484 1.0236573 -0.06774137 0.0441918 0.22828417 0.018624352 -0.089365356 -0.049967878
1.7558274 -0.05981893 0.03052353 0.47298482 0.3899098 0.17445405 0.047460176 -0.08928705
-0.44110277 0.006689895 -0.064976305 -0.024242846 0.04935796 -0.006638654 0.7100711 -0.16457559
0.39078405 0.10503935 -0.13302489 -0.1439412 0.22238457 -0.06737398 -0.14545752 0.20295365
0.15609455 -0.081708014 0.06592695 0.1328226 -0.09017375 0.06466609 0.13896982 -0.12109347
-0.10207006 0.043671895 -0.31985787 0.089490056 0.11808774 -0.14779863 -0.019458022 0.029570702
0.031009106 -0.2658608 0.010700285 0.21670386 -0.06059877 0.031775244 -0.07284175 0.27447087
0.17851904 0.056915604 0.06946901 -0.11181322 0.18412025 0.052626662 0.063341424 0.2599947
-0.021600597 0.050626755 0.36240613 -0.18514875 -0.013649096 -0.09855292 0.07258102 -0.12493807
-1.2257813 0.35615003 -0.25354424 0.2689084 -0.08570871 0.048985146 0.16210711 -0.2812788
-0.004499499 0.0296089 0.13214017 -0.31023723 0.13732953 0.16985871 0.20485526 0.2001896
0.14039262 0.654858 -0.13308635 0.5782683 -0.17824091 0.18900141 -0.16521181 -0.031971194
-0.05611322 -0.12812972 -0.008491436 0.08434132 -2.7456026 0.7381244 -0.04267776 0.07131876
0.3777656 0.258206 -0.1945475 -0.0075003626 -0.07298866 -0.051491704 0.014411401 0.43901116
0.30958694 0.14292412 -0.012944755 -0.08187326 0.60540926 0.13859218 -0.028756404 -0.031222196

model_1/dense/BiasAdd/ReadVariableOp:0 f4 [100]
00000000: 45b1 a13b dd7a ff3d fc79 29be 0759 283d
00000010: 6800 1fbd f263 11bd 85ff a4bc 2ece 1e3c
00000020: 115e 053d f914 5e3d b223 85bc 2672 dfbd
00000030: ccb6 a43d 3b44 d7bd 6b25 f9bc 05e9 b73c
00000040: 8fa3 fb3c 9c60 c43d 250c 40bd b8b5 0c3e
00000050: 4dc1 44bd c394 6d3d 4695 9a3c 31ca d03d
00000060: cc42 00bd 1e6a 773d 51f1 0a3e 176a 38be
00000070: d65f 113d 8a70 14be f0d8 41bd 5450 5d3d
00000080: eeea d83d ed71 913c e758 2dbe 6f38 0b3c
00000090: 31c3 f8bd 6d43 7cbe b8ef 293d f3ce 633c
000000a0: 7b31 c8bd 54c6 66bb 6b3e c93d 94c7 9ebc
000000b0: be0b 643c f855 a53d 052e d73d a5e1 2bbd
000000c0: 3a9a 1ebe 572b 9bbc 306e 59bd 1b06 c23d
000000d0: 6eb2 083f 2f95 16bd 3add 5a3d 382d 0f3c
000000e0: 5e34 93bd e710 613d 8236 aabd 6add aebc
000000f0: d246 b5be f55b 2d3d 74a6 ba3e 8e69 ddbd
00000100: bf87 54be 1587 9e3d 579d 8b3a bf25 11bd
00000110: 854f 2e3c cb16 03bd cb2f 14bd c412 17bd
00000120: dd6e b53d 5945 d23d e2dd 193e 6331 623d
00000130: 3832 9cbc ac90 1c3d 4800 ee3c 969e e43d
00000140: 7b78 ccbc 1d7b 70bc 5893 b73d fe6f 1fbd
00000150: e752 10bd a3c3 f03d c801 84bc 85f8 05be
00000160: b77f 113c 3bfc 8dbd 955c 073d 25a1 a0bc
00000170: 880d d7bd 7375 133d 4c10 f7bc 3faf 87bc
00000180: aaad 663d 66eb 8dbc 92ee 1f3d 4fe5 f1be
0.0049344623 0.12474606 -0.1655044 0.041100528 -0.038818747 -0.035495706 -0.020141372 0.009692712
0.03256041 0.05421922 -0.016252372 -0.10910444 0.08042678 -0.10511061 -0.03041335 0.02244998
0.03071764 0.09588739 -0.046886582 0.13741195 -0.04803591 0.0580032 0.018870007 0.10194815
-0.031313702 0.060403936 0.13568617 -0.1800922 0.035491787 -0.14496055 -0.04732603 0.054031685
0.10591684 0.01775452 -0.16928445 0.008497342 -0.12146605 -0.24635096 0.04148838 0.013904321
-0.09775063 -0.0035213428 0.098263584 -0.019382276 0.013918815 0.08073038 0.105068244 -0.04196324
-0.1548852 -0.018941564 -0.0530836 0.09473821 0.5339726 -0.036763366 0.053433634 0.008738808
-0.071877226 0.05494776 -0.08311178 -0.021345813 -0.35405594 0.042324025 0.3645512 -0.108111486
-0.20754908 0.077406086 0.0010651749 -0.035436388 0.010639076 -0.03200416 -0.03617839 -0.03688313
0.08859036 0.10267133 0.15026048 0.05522288 -0.019066915 0.038223907 0.029052868 0.1116306
-0.024959793 -0.01467779 0.089636505 -0.038925163 -0.03523531 0.11756065 -0.01611413 -0.13083084
0.008880547 -0.06932875 0.033047277 -0.01960809 -0.10500628 0.03600068 -0.030159138 -0.016563056
0.056317963 -0.01732416 0.039045878 -0.4724526

W0__94 f4 [1, 128, 7]
00000000: 549c eabd eb3c 85bd f039 3740 4382 fb3f
00000010: d6f3 6f3f 1753 a63e 8b4b 173f d6d1 80bd
00000020: 237e 87be 8356 9040 a470 a6bf 72bf 6dbd
00000030: dac9 083f bec6 f13e 84bc 08be e37f eebe
00000040: 746e 82bf 522c e63f 0458 0abe 9df3 5abf
00000050: 9015 70be 8346 d83d ccd5 c8be 5163 813e
00000060: 8f8a 2541 46eb cc3d 6365 81bf 425f 50be
00000070: c95f 813d e5ef 053f b383 d4bf e68b 87be
00000080: 2d89 d1be c42f 89be 44aa c6be eb4b 3fbe
00000090: be18 53bf 193e 5abe b78e ccbc 7d97 4b3e
000000a0: d388 a2be e1bc 9bbd f48f dd3d aba3 ad3e
000000b0: 456f 6cbf 103d a4bf d12e acbd 986d e2be
000000c0: 3da9 253d 5b87 76be e71d 53be a82e 9e3f
000000d0: 12b6 efbf 8c14 cc3e 1463 70bf f059 dfbe
000000e0: fad6 96be 2c8b abbf 1de6 dd3f c3de e8bf
000000f0: 9065 b93d 2a6b e1be 2e65 813e 27fa 70bd
00000100: 9027 473c 0b20 63be 5df3 3a41 66d5 153d
00000110: 480a c5be 8e48 773e 892c fe3e db42 15bf
00000120: 4c45 20bf 7d2f 8540 4961 d2be c2c0 bc3e
00000130: 5470 763e aee7 a4be 946c 09be 77a6 0040
00000140: 589a a8bf 6327 1e3e 41d7 4abf 73d7 0dbf
00000150: 2926 39be f459 a6bf 9f07 64bf 5d82 0dc0
00000160: ba5e 0c3d 5722 c6be feb0 2fbe fdeb 68be
00000170: 4604 2fbf 9b01 b6be 1ead b2be cee9 80be
00000180: 7348 1dbf 7e05 083f 7512 883e 0d30 76be
00000190: da1a 48be cb5c 3240 d24b 8e3f b57d 11bf
000001a0: f66b 6fbd 6643 25be 22c9 bdbe 961d 5b3e
000001b0: 33a2 8840 7351 ec3e b1d2 d9be 7a86 3a3d
000001c0: 588c 123c 6e23 a3be 59a9 c0bf bcb7 0a40
000001d0: ed62 f23d 7b97 bdbe 6abc ee3e b991 e53e
000001e0: 4f14 853d f6c6 d6bd 8ae7 4740 f311 37be
000001f0: f201 76bf f270 853f 4b8b a5be 013f 01bf
00000200: 97f6 763f 12a1 c43e 091c 6f3d 9eb5 8dbe
00000210: 6df5 34bd 0dc8 753c fc7a da40 16ea f1bf
00000220: f908 d53f d7da c2be bf96 4cbf f4c0 ebbe
00000230: cccf 4b3f e203 6f3e e315 fbbe c1b5 ca3e
00000240: 50ee bc3f 3046 49bf 188a 6d3e 563e 9ebe
00000250: c9a2 9c3e 1542 ac3f 31ea 27c0 c642 ed3d
00000260: a77a 3bbe 7d27 383f 31f4 b43d cdb7 383e
00000270: 652e 063f 5401 463f 6379 9fbe 6c63 e0be
00000280: 886b 703e f01e e4be ce3f 2abe a1ea d33f
00000290: 795c e0be a2c4 e43e 3f0a 66bf e869 0e3c
000002a0: dc41 91be 47f9 073d 5aaf 44c0 f540 b63f
000002b0: c35f 65bf 5736 e63e 10a7 f8bf bf44 e4bd
000002c0: 1e32 d3be d616 babd 9df9 1f3e 5258 9d3e
000002d0: 234d a4be 42d0 c33e 1f85 84be 08ac 36be
000002e0: 2f62 8d3f c8bd 8abf 9db9 b33d 946f 41bf
000002f0: 6a76 b2bc 3d02 cc3e de62 683e 3502 af40
00000300: c417 9cbf 070c 89be ab62 6f3e 2d32 353f
00000310: cd29 4ebe cefd b83c c2fa 7abe a090 d23f
00000320: d2c0 09be 006e 7dbf c985 e9be a013 07be
00000330: ea49 07bf fc36 7140 f0e6 fd3f c359 463f
00000340: 1e81 f0bc 66a5 0cbf e099 95bd db36 e4bd
00000350: e270 d93e 0aea 11be 561e 323e 21c6 ecbe
00000360: c4c3 2abf 18bd 233d ccc5 69bd 9941 94bf
00000370: 06bb 513f c8f2 cebc d27a 94bf cef8 f4bd
00000380: 7614 4bbe 5d77 40be e325 04c0 385e 90bf
00000390: 429f 9b3c b7eb ad3f e6a2 553e 8352 efbc
000003a0: 2783 4cbe 7b3b 5fbf b2b7 01c0 8400 e8bd
000003b0: f6fb 443f ba32 47bf d699 073e 3cde d63d
000003c0: 3b2e d13e ec13 72be 253e e0bd 5ace 7fbd
000003d0: 823c ffbd 3135 88be a8d8 973f 610e b93e
000003e0: 8b06 0240 b60c 2ebe 2b78 823f 5544 41be
000003f0: e052 873d d360 93bd 33a1 07c1 2148 46c0
-0.114555985 -0.0650576 2.8629112 1.9649128 0.9373144 0.32485268 0.59099644 -0.06290023
-0.26463422 4.5105605 -1.3003125 -0.058043905 0.53433 0.4722194 -0.13353163 -0.46581945
-1.0189958 1.7982275 -0.13510138 -0.85527974 -0.23445725 0.10560324 -0.39225614 0.25271085
10.346328 0.10005812 -1.0109066 -0.20348838 0.06317098 0.52319175 -1.6602691 -0.26473922
-0.4092497 -0.26794255 -0.38801777 -0.18681304 -0.8245963 -0.21312751 -0.024970395 0.19882007
-0.31745014 -0.07604385 0.108184725 0.3391393 -0.92357284 -1.2831135 -0.08407367 -0.44224238
0.0404446 -0.24075072 -0.20616876 1.2357988 -1.8727438 0.39859426 -0.9390118 -0.43623304
-0.2946089 -1.3401847 1.733585 -1.8192981 0.09052575 -0.44027072 0.25272506 -0.058832314
0.0121554285 -0.22180192 11.684415 0.036580466 -0.38484406 0.24148771 0.49643353 -0.5830514
-0.6260574 4.162047 -0.41089848 0.36865813 0.24066287 -0.32208008 -0.13420326 2.0101602
-1.3172102 0.15444712 -0.792347 -0.55406874 -0.18080963 -1.2996202 -0.8907413 -2.2110817
0.034270026 -0.38698074 -0.17157361 -0.22746272 -0.68365896 -0.355481 -0.34897703 -0.2517838
-0.61438674 0.5313338 0.26576582 -0.24041767 -0.19541493 2.7869136 1.1116889 -0.5683244
-0.05845257 -0.16138992 -0.37067515 0.21398005 4.2697997 0.4615589 -0.42543557 0.045538403
0.008944593 -0.31862968 -1.5051681 2.1674643 0.11835275 -0.37029633 0.46628124 0.4483774
0.06498014 -0.104871675 3.123507 -0.17877941 -0.9609672 1.0425093 -0.32332835 -0.5048676
0.96470016 0.38404137 0.058376346 -0.27677625 -0.04417937 0.015001309 6.8275127 -1.8899562
1.6643363 -0.38057587 -0.7991752 -0.4604565 0.7961395 0.23341325 -0.49040136 0.39591792
1.4760227 -0.7862272 0.2319721 -0.30906934 0.30592945 1.3457667 -2.623669 0.11585002
-0.18308507 0.71935254 0.08835638 0.18038864 0.5241454 0.77345777 -0.31147298 -0.43825853
0.2347852 -0.44554853 -0.16625902 1.6555978 -0.4382055 0.4468127 -0.89859384 0.008692242
-0.2837056 0.033196714 -3.0732026 1.4238573 -0.89599246 0.44963333 -1.9425983 -0.11145925
-0.41249174 -0.09086387 0.15622564 0.30731446 -0.320901 0.38244826 -0.25882813 -0.17839062
1.1045588 -1.0839167 0.08775637 -0.7556088 -0.02178498 0.39845458 0.22693965 5.4690194
-1.2194753 -0.2676699 0.23377483 0.7077969 -0.20133133 0.022581961 -0.24509719 1.6450386
-0.13452461 -0.9899597 -0.45609882 -0.1319108 -0.5284716 3.768981 1.9836102 0.77480716
-0.029358443 -0.5493988 -0.0730474 -0.11143275 0.42468935 -0.14249435 0.17394385 -0.4624491
-0.66704965 0.039975256 -0.0570734 -1.1582519 0.81926 -0.025262251 -1.1599982 -0.11961518
-0.19832024 -0.18795533 -2.0648124 -1.1278753 0.018996838 1.358756 0.20862922 -0.02921415
-0.19971906 -0.87200135 -2.0268369 -0.11328223 0.7694696 -0.7781178 0.13242278 0.104916066
0.40855584 -0.23640412 -0.10949353 -0.06245265 -0.12462713 -0.26603082 1.1862993 0.36143783
2.0316494 -0.16997036 1.0192922 -0.18873723 0.06607604 -0.07196202 -8.476855 -3.0981524

R0__95 f4 [1, 128, 32]
00000000: c4e4 87be 6c2f 91bd 76e5 aabe 4461 a33f
00000010: 5791 693f b7a0 d2bf 04dc 7e3f fd1a 46bf
00000020: ac96 2a3f dcae 033e c8dd 883f 35e7 8dbe
00000030: f96c 4f40 9a96 2cc0 cab4 a8be b84e 9a3f
00000040: 82c5 8c3c f86d d7be d750 c6be 9414 493f
00000050: 17cf 273f cbc6 75be cdcd e93e f4d5 423f
00000060: 4516 983f 07e8 6f3f 4e21 bb3d f747 a6bf
00000070: 1ccc 27bd d507 a43f 2288 21bf 086b 7cbf
00000080: c589 7b3f ba0f 4040 6584 a0be b498 2cc0
00000090: a60a 05bd b3d2 acbf 1282 51bf eec4 53bf
000000a0: 5233 7340 be5c debe 430e 123f cc9c 88bf
000000b0: c90a 953a 5e20 d1bf 5ea0 ebbf 650b ac3f
000000c0: 0ca4 8e3e 4461 0440 486b 6e3f 8446 9cbf
000000d0: 7b0c 1c3f 766c 3240 51b1 20be 62f0 063f
000000e0: cf95 9bbf 3926 0b3e 77b3 90be 3fd7 9abe
000000f0: 2fb3 52be 6a53 2c3f 9986 4ebf 535d fa3f
00000100: ea1c babe 1832 043d b3e2 20be dfa3 dfbd
00000110: 8b29 b9be 5061 683f 7b12 723f 6dc6 bdbd
00000120: 6d9a 293e 56ee 87bf e9f3 aabf 415e c33e
00000130: 0285 47bf 6701 d4bf 04d1 b1bd ac8e 35be
00000140: 5725 3fbe d8d3 d43f e4cd dfbf 68bf cf3e
00000150: 65b3 b7bd e43a 15bf 1b6a 52bf 1f63 d4bd
00000160: 2cbb 78bf cf7c 2bbf 14e0 bd3f b22c b5be
00000170: 8a41 e13f 1185 a7be eaa8 3dbe e112 db3f
00000180: 4b91 0b3e 84f2 98bd a64d 923f b548 04bf
00000190: 7df5 953d eecf 353e 7a5b 7a3f bf74 8a3e
000001a0: df56 bfbd 714a 773e 6333 9d3f 7bb5 f4be
000001b0: 00f0 da3e 73b1 37bf f30b a8be fc97 433f
000001c0: c96c 303f cac5 313f 2f6d d8be b9eb e83e
000001d0: 1178 b7be 8b75 8fbf a775 34be 8ab1 633d
000001e0: 837e 45be bfda d93e 7d22 67be 395d c8be
000001f0: 5052 103f 5f58 eb3e d11f 153f ad44 df3f
00000200: 1f2e aebf 5504 7ac0 1369 383e 6152 9bbe
00000210: 3dd5 2f3f 42c9 d1be 8042 1abf 3ecb 423d
00000220: 47c8 47bf 2831 373f 2afa d0be 451a 653f
00000230: 3000 6dbe d48a 10bf 9703 5cbf 1dfa 63bf
00000240: 4daf 12bf 5cf3 5b3f caf0 ffbe 0b59 07c0
00000250: 3d25 a2bf 0724 17c0 7266 b43f 8521 713e
00000260: 6b9e 353f 8b38 abbf 5132 4e3f 9cb5 36bf
00000270: 6b4e 39bf e243 1fc0 18d6 213f 4935 99bf
00000280: b673 8cbf 8c28 c13e c68c 793f 0b7a d8be
00000290: 539e 8f3f 5859 1e3f 0df8 283f 93a0 bcbe
000002a0: 4f05 a93e 3943 363d 9121 3f3f a766 55bf
000002b0: 79fa 983e cf97 42be 5691 3b3f 53e0 3f3e
000002c0: bbe7 c03e e157 623f 8077 8fbe 69be 9fbf
000002d0: f161 593e 09d7 71bd fd64 bd3d aedd 13bf
000002e0: f20d 203e a014 19be 9352 bbbe f4ef c7be
000002f0: 6f0a c33e fd0c 0dbf 34a3 a03d fa89 b33d
00000300: e03d 513f 1923 96be 38be c6bd b195 833e
00000310: eb10 ddbe 2bcc 433f 7dae 6c3f 0ec4 0abf
00000320: 0d21 9d3e a0b0 64bf 24ea 2dbf 0485 2e3f
00000330: b0aa e2bf e46f 1cbe fd71 d83e 3bb2 7ebe
00000340: f99d 663f fc42 4bbf 2f52 83bf af1f 143d
00000350: 7e12 a3be 0021 e53d ad03 2a3c 9d19 21bf
00000360: 1931 943c b6a4 8abf bdd3 593f 1dbd 77bf
00000370: f71f ec3e 3408 8fbc 791c 323e ee37 8c3f
00000380: 3e6c 05bf e8b5 f43d dcda 79bf a373 46be
00000390: 577f dabe 4aa9 53be 2ceb 23bf 3985 d03f
000003a0: 712c 22bf c715 44be d8b1 ca3e 91d7 8a3f
000003b0: 3cca 06c0 78bb 8ebf 2ea6 28bf 02b2 47be
000003c0: 664c b03f 17ec 47bd 1162 05bf c7a0 77bf
000003d0: a593 ecbe e4e4 19bf ef2c 86bf 4309 783f
000003e0: 3299 d23f 0ce2 ffbe 392f 25bd aa69 ee3b
000003f0: 5284 0abf f005 01bf 5207 8ebe 1857 3e3d
-0.26541722 -0.07089123 -0.3337819 1.2764058 0.91237396 -1.6455296 0.9955447 -0.7738493
0.6663616 0.12859672 1.0692682 -0.2771546 3.2410262 -2.696692 -0.3295043 1.2055273
0.017184023 -0.42076087 -0.3873355 0.78547025 0.6555037 -0.24001615 0.45664826 0.76107717
1.1881796 0.9371342 0.09137212 -1.2990712 -0.04096614 1.281489 -0.6309835 -0.98600817
0.98257095 3.0009599 -0.3135101 -2.6968203 -0.03248086 -1.35018 -0.81839097 -0.82722366
3.8000073 -0.43430132 0.5705301 -1.0672851 0.0011371012 -1.6338003 -1.8408315 1.3440977
0.27859533 2.0684366 0.9313245 -1.220902 0.60956544 2.78787 -0.15692641 0.52710545
-1.2155093 0.135888 -0.2826192 -0.30242345 -0.20576166 0.6731478 -0.8067413 1.955973
-0.36350185 0.032274336 -0.15711479 -0.10919928 -0.36164507 0.9077349 0.9455945 -0.09266362
0.16562815 -1.0619609 -1.3355685 0.38157848 -0.7793733 -1.6562928 -0.08682445 -0.17730206
-0.18666588 1.662715 -1.7484708 0.4057572 -0.08969764 -0.58292985 -0.82193154 -0.10370468
-0.971606 -0.6698732 1.4834008 -0.35385662 1.7598126 -0.3271871 -0.18521467 1.7115136
0.13629644 -0.07468131 1.1429946 -0.5167344 0.07322214 0.177551 0.9779583 0.27042195
-0.09342741 0.24149491 1.2281307 -0.4779471 0.4276123 -0.7175514 -0.32821617 0.76403785
0.6891599 0.6944243 -0.422708 0.45492342 -0.3583379 -1.1207746 -0.17623006 0.055589236
-0.19286542 0.42549703 -0.2257175 -0.39133623 0.563756 0.4596586 0.58251673 1.7442833
-1.3607825 -3.9065144 0.18008833 -0.30336288 0.6868475 -0.4097386 -0.6025772 0.047557108
-0.78039974 0.7155938 -0.4081586 0.8949321 -0.23144603 -0.56461835 -0.8594298 -0.8905352
-0.5729874 0.8591821 -0.49988395 -2.1148098 -1.2667614 -2.361574 1.4093764 0.23547943
0.7094485 -1.337663 0.80545527 -0.71370864 -0.7238528 -2.4885182 0.63217306 -1.1969386
-1.0972812 0.37726247 0.9748043 -0.4228061 1.1220192 0.6185508 0.66003495 -0.36841258
0.33011863 0.044497702 0.74660593 -0.8335976 0.29878595 -0.19003223 0.7326864 0.18737917
0.37676796 0.8841534 -0.2802086 -1.2479984 0.21228768 -0.059042964 0.092477776 -0.5776013
0.1563032 -0.14949274 -0.36586437 -0.39050257 0.38093898 -0.55097944 0.078436285 0.08766551
0.8173504 -0.29323652 -0.0970425 0.25700143 -0.4317697 0.7648341 0.9245375 -0.54205406
0.30689278 -0.8933201 -0.67935395 0.68171716 -1.770834 -0.15277058 0.42274466 -0.24872677
0.900848 -0.79399085 -1.0259455 0.03616303 -0.31850046 0.11187935 0.010376853 -0.6292971
0.018089818 -1.0831516 0.8508871 -0.9677294 0.46118137 -0.017459966 0.17393674 1.0954568
-0.5211829 0.11948758 -0.9759958 -0.1938005 -0.42675278 -0.20670047 -0.6403072 1.6290656
-0.6334906 -0.19148932 0.3958881 1.0847036 -2.1060934 -1.1150961 -0.6587857 -0.19501498
1.3773315 -0.048809137 -0.5210276 -0.967297 -0.46206394 -0.60114884 -1.0482463 0.9688913
1.6453001 -0.49977148 -0.04032824 0.0072757797 -0.54108155 -0.50399685 -0.2773996 0.046469778

B0__96 f4 [1, 256]
00000000: 3e58 393f 735c b13f 0bd7 a8bf 22a9 8a3d
00000010: b0c5 14bf 733f 44bf 3125 12bf 332b bebe
00000020: d6a8 bebe 3ffd 5b3f e3af 13bf 9297 5cbf
00000030: 7a56 82bf f538 1fbf 9f5d 81bf 2828 9abf
00000040: fddd 1bbf e045 9e3f a803 42bf 95a3 1cbf
00000050: 3282 b8bf 424d d7be 47de 7ebf bef3 1cbf
00000060: 4d74 0840 c5ef e7be d8aa 3bbf 9bc1 753f
00000070: 664a 9dbf ddd4 5abe 26bb 38bf 04fc 1fbf
00000080: 4c22 5f3f e218 863f 80bf 59bf 655f 303e
00000090: 68ec 3abf 95c2 8fbd 16dc d1be cb59 9a3f
000000a0: 85dd cfbe 9780 573f bc1c 64be 9142 ac3e
000000b0: 747b 4bbf 006f 48bf e5be 963e adaf 93be
000000c0: b029 843e 6811 2a3e ae3e 04bf 083a efbe
000000d0: 798b 84be 44ac b7bd 3068 81be 1ffb a53e
000000e0: 194e 94be 7d9c 27bc b2aa 89bd 3bd1 893f
000000f0: 4cc9 a03e a9c3 3cba 6ccd 943e 2132 61bf
00000100: dc6c 0a3f ac57 743f 9fae 8c3f 4adc 273f
00000110: 8917 cb3f df8c ac3f 9bee e43f a2b8 dd3f
00000120: 6637 3b3f 7bb8 7a3f e1cf 9cbd fa74 a03f
00000130: 338f 983f b626 473f f1f8 f93f 0b92 9d3f
00000140: 2f17 a73f 9e63 803e 8ae8 713f f010 853f
00000150: 1eec c63f 9d02 953f 5e6f b43f 8ca8 be3f
00000160: ca9b be3f 234d 853f 63e5 ae3f ec2c b0be
00000170: dfe9 e43f f811 153f 9fe4 283f 0042 5a3f
00000180: 0038 e23e 9bef 023f 6b63 9f3e 4513 2e3f
00000190: 681e 59be 3aba d83d 9f06 11be 8cf9 9a3e
000001a0: f23e 2d3f d44d 733f a89f 60bf 6659 293e
000001b0: b8b8 f13b 2804 d73e c25f d53c 409d 97be
000001c0: 9441 1dbe 576a 96bf 8745 973e b416 84be
000001d0: 8aa3 cabe f8d9 9bbe 4bec 0cbf a814 863e
000001e0: ce3d 25bf 6363 363e 515e f53e 9bd0 41be
000001f0: ec73 973e 7a88 61bd 347c e7be cfec bbbe
00000200: 0000 0000 0000 0000 0000 0000 0000 0000
00000210: 0000 0000 0000 0000 0000 0000 0000 0000
00000220: 0000 0000 0000 0000 0000 0000 0000 0000
00000230: 0000 0000 0000 0000 0000 0000 0000 0000
00000240: 0000 0000 0000 0000 0000 0000 0000 0000
00000250: 0000 0000 0000 0000 0000 0000 0000 0000
00000260: 0000 0000 0000 0000 0000 0000 0000 0000
00000270: 0000 0000 0000 0000 0000 0000 0000 0000
00000280: 0000 0000 0000 0000 0000 0000 0000 0000
00000290: 0000 0000 0000 0000 0000 0000 0000 0000
000002a0: 0000 0000 0000 0000 0000 0000 0000 0000
000002b0: 0000 0000 0000 0000 0000 0000 0000 0000
000002c0: 0000 0000 0000 0000 0000 0000 0000 0000
000002d0: 0000 0000 0000 0000 0000 0000 0000 0000
000002e0: 0000 0000 0000 0000 0000 0000 0000 0000
000002f0: 0000 0000 0000 0000 0000 0000 0000 0000
00000300: 0000 0000 0000 0000 0000 0000 0000 0000
00000310: 0000 0000 0000 0000 0000 0000 0000 0000
00000320: 0000 0000 0000 0000 0000 0000 0000 0000
00000330: 0000 0000 0000 0000 0000 0000 0000 0000
00000340: 0000 0000 0000 0000 0000 0000 0000 0000
00000350: 0000 0000 0000 0000 0000 0000 0000 0000
00000360: 0000 0000 0000 0000 0000 0000 0000 0000
00000370: 0000 0000 0000 0000 0000 0000 0000 0000
00000380: 0000 0000 0000 0000 0000 0000 0000 0000
00000390: 0000 0000 0000 0000 0000 0000 0000 0000
000003a0: 0000 0000 0000 0000 0000 0000 0000 0000
000003b0: 0000 0000 0000 0000 0000 0000 0000 0000
000003c0: 0000 0000 0000 0000 0000 0000 0000 0000
000003d0: 0000 0000 0000 0000 0000 0000 0000 0000
000003e0: 0000 0000 0000 0000 0000 0000 0000 0000
000003f0: 0000 0000 0000 0000 0000 0000 0000 0000
0.7240027 1.3856338 -1.3190626 0.06770541 -0.5811415 -0.76659316 -0.57088 -0.37142333
-0.37238187 0.859333 -0.57690257 -0.8616878 -1.018264 -0.62196285 -1.0106696 -1.2043505
-0.608856 1.2365074 -0.7578683 -0.61187106 -1.4414732 -0.4205113 -0.9955792 -0.6130942
2.1320984 -0.45300117 -0.7330756 0.95998544 -1.228833 -0.21370263 -0.72160566 -0.6249392
0.8716171 1.0476344 -0.8505783 0.1722389 -0.7301698 -0.070195355 -0.40988225 1.2058653
-0.40598693 0.8418059 -0.22276586 0.33644536 -0.7948525 -0.7829437 0.29442516 -0.28844967
0.25813055 0.16608202 -0.5165814 -0.46723962 -0.2588766 -0.08968404 -0.252748 0.32418153
-0.28965834 -0.010230181 -0.06722011 1.0766977 0.31403577 -0.00072007865 0.29062974 -0.87967116
0.54072356 0.95446277 1.099079 0.6557051 1.5866557 1.348049 1.7885317 1.732197
0.73131406 0.97937745 -0.07656837 1.2535698 1.1918701 0.77793443 1.9529096 1.2310194
1.305395 0.25076002 0.9449545 1.0395794 1.5540807 1.1641423 1.4096487 1.4895186
1.4891293 1.0414165 1.3663753 -0.34409273 1.7883872 0.58230543 0.6597385 0.8525696
0.4418335 0.5114686 0.31130537 0.6799815 -0.21203005 0.10582395 -0.14162682 0.30268514
0.6767417 0.9504063 -0.87743616 0.16538009 0.0073767565 0.41995358 0.026046637 -0.2961216
-0.15357047 -1.1751202 0.29545233 -0.2579857 -0.39577895 -0.30439734 -0.55048054 0.26187634
-0.6454743 0.1781135 0.4792352 -0.18927233 0.2958063 -0.055061795 -0.45211947 -0.36704108
0.0 0.0 0.0 0.0 0.0 0.0 0.0 0.0
0.0 0.0 0.0 0.0 0.0 0.0 0.0 0.0
0.0 0.0 0.0 0.0 0.0 0.0 0.0 0.0
0.0 0.0 0.0 0.0 0.0 0.0 0.0 0.0
0.0 0.0 0.0 0.0 0.0 0.0 0.0 0.0
0.0 0.0 0.0 0.0 0.0 0.0 0.0 0.0
0.0 0.0 0.0 0.0 0.0 0.0 0.0 0.0
0.0 0.0 0.0 0.0 0.0 0.0 0.0 0.0
0.0 0.0 0.0 0.0 0.0 0.0 0.0 0.0
0.0 0.0 0.0 0.0 0.0 0.0 0.0 0.0
0.0 0.0 0.0 0.0 0.0 0.0 0.0 0.0
0.0 0.0 0.0 0.0 0.0 0.0 0.0 0.0
0.0 0.0 0.0 0.0 0.0 0.0 0.0 0.0
0.0 0.0 0.0 0.0 0.0 0.0 0.0 0.0
0.0 0.0 0.0 0.0 0.0 0.0 0.0 0.0
0.0 0.0 0.0 0.0 0.0 0.0 0.0 0.0
