encodercyc_anneal_pbigsig_tweaky_40_30.onnx (onnx, 38594 bytes, 5 tensors)

model_1/z_mean/MatMul/ReadVariableOp:0 f4 [40, 30]
000000 99 4c a4 3d 44 c2 22 be e1 01 8a 3c 18 ee 1e bd
       0.08022422 -0.15894419 0.016846599 -0.038801283
000010 45 d2 c3 bc 96 db 25 3d 71 b6 2d bf f0 4c fd 3c
       -0.023903975 0.040492617 -0.6785651 0.030920476
000020 c4 35 ad 3f 3d 35 a2 bd df 14 1a 3d d8 a5 13 bd
       1.3532033 -0.07920311 0.03761756 -0.036046833
000030 06 5d 89 be 89 70 00 bd c4 28 f5 38 31 75 41 bd
       -0.26828784 -0.031357322 0.000116901036 -0.047230903
000040 9a 1e 41 bd 5e cd e6 bd 90 9f 38 3d 6e 1d 54 3d
       -0.047148325 -0.112696394 0.045074046 0.05178588
000050 16 ec 5e 3d b1 20 f0 3d 61 d5 98 3d 48 65 1c 3c
       0.054424368 0.117249854 0.07462574 0.009545632
000060 b5 c6 15 bc 2a 98 18 bc a1 69 c9 3b 11 f8 d6 3b
       -0.009141614 -0.0093136225 0.006146625 0.0065603335
000070 14 5d a9 bb f9 41 a3 bd f2 2a 8c bd 6c 0c 4a be
       -0.0051685665 -0.07971568 -0.06844129 -0.19731301
000080 31 aa 1f bc 6b 4f a4 bb 00 ae 43 bd f2 8e f0 3c
       -0.009745167 -0.00501435 -0.04777336 0.029365037
000090 dc 88 9b 3e 61 a8 81 bc 78 8c 24 be 07 0b 49 bd
       0.30377853 -0.01582736 -0.1606921 -0.049082782
0000a0 5d 91 9d 3a 54 9f 64 bc f4 62 ca be ff 51 66 bf
       0.0012021471 -0.013954002 -0.3952862 -0.89968866
0000b0 2b b3 85 3d 7b b4 f2 3b 43 28 07 3c 10 75 28 3c
       0.06528314 0.007406769 0.008249345 0.010281816
0000c0 53 c0 33 bb 4d ab 79 3c 04 2b 10 bd c5 3a 7b bd
       -0.0027427867 0.015238595 -0.035197273 -0.061335344
0000d0 f0 91 34 3d d8 af c0 bb 44 9f 91 bb 87 12 b0 bc
       0.04408449 -0.005880337 -0.004444035 -0.02149321
0000e0 00 b1 f2 bc 56 aa db 3b 01 b9 d5 bc 34 22 c5 3b
       -0.029625416 0.0067036552 -0.026089193 0.00601604
0000f0 1f ee 32 3e 4f d7 08 40 7d 7f 11 bd b6 bd 21 3d
       0.17473648 2.1381414 -0.035521973 0.039487563
000100 b2 40 15 3c f6 2b 2c bd 93 64 19 bf d7 ed f6 bc
       0.009109663 -0.042034112 -0.5991909 -0.030142708
000110 9c be 6f 3e 8f fc 90 3a 46 b9 01 3d 9b 5c 0f bd
       0.23412555 0.0011061596 0.03167083 -0.035000425
000120 be 8c d8 bb 21 62 17 bd fe a3 f3 bf 1f 6a 89 3a
       -0.0066085747 -0.036958817 -1.9034421 0.0010483897
000130 fb b4 fb bc 5f 8a dc bf c6 86 0c 3d c4 a2 b2 3d
       -0.030725947 -1.7229728 0.034308217 0.08722451
000140 e1 c1 50 3d 65 60 37 3f cd 28 08 3d a9 30 94 3d
       0.050966147 0.7163146 0.033242036 0.07235844
000150 4a 35 c6 3c 60 61 82 bb 50 80 c2 bc 3b e3 73 3d
       0.024195332 -0.003978893 -0.023742825 0.059542876
000160 0b 91 97 3d ca 4d 2f bc 77 44 1a 3b a2 d5 95 be
       0.074007116 -0.010699699 0.0023539343 -0.2926455
000170 c9 bf 90 bc 2a d5 12 bd 9f c0 0f 3a 1e 35 2e bd
       -0.017669575 -0.03584782 0.000548372 -0.042531125
000180 bd 50 3f 3e 48 86 81 3d 27 85 44 3e f5 85 14 3d
       0.18683143 0.0632444 0.19191419 0.036260564
000190 fe af 24 bc 47 50 ee 3b 55 e4 5d be 3b 58 36 bf
       -0.010051725 0.0072727534 -0.21669133 -0.7122838
0001a0 c1 68 82 3e 0a 2a c7 3c 0a 97 f4 3b 5e de d4 bb
       0.25470546 0.024312038 0.0074642943 -0.006496235
0001b0 ea e4 b2 3b f2 1c 0b bd 68 17 7e bd 90 9d b9 be
       0.0054594176 -0.03396315 -0.06203404 -0.36253023
0001c0 81 bd 90 3c 7d d7 db bb 5d d0 13 3d be 75 d7 39
       0.017668488 -0.006709038 0.036087383 0.0004109572
0001d0 bb e7 4b bc c6 f8 8b bc 02 be 8f 3c 5f a8 43 3d
       -0.012445386 -0.017086398 0.017546657 0.047767993
0001e0 f7 8e ac 3d ac c2 af be f4 50 2d 3d 3d b9 c5 3c
       0.08425706 -0.3432821 0.04231353 0.02413618
0001f0 07 cf 8b 3d 64 09 41 3b de a1 b0 3d 49 7f 8c bc
       0.06826597 0.002945506 0.08624624 -0.017150538
000200 c6 f6 a5 be b2 c6 99 3d e4 1b 3f bc e0 cf 59 3c
       -0.32414836 0.07508601 -0.0116643645 0.01329419
000210 62 b3 16 3f 34 2b c6 3e e2 ed a5 bd 0d b2 26 bb
       0.58867466 0.38704836 -0.08102013 -0.0025435716
000220 34 8b 0a bd 32 00 af bd 62 60 b5 3c c3 a3 d5 ba
       -0.03382416 -0.08544959 0.022140685 -0.0016299415
000230 8a 2d 42 bb 4d c7 3f be 30 75 0f 3d e2 4d 20 bd
       -0.0029629194 -0.18728371 0.035023868 -0.039136775
000240 f4 de d6 bc ba 86 98 3c 53 6e 42 3d 95 49 05 bd
       -0.02622936 0.01861893 0.047468495 -0.032540876
000250 cf 9e 8c bc 13 be 76 3c fa fa 33 3f 7d 44 20 3f
       -0.01716557 0.015059966 0.70304835 0.62604505
000260 f2 54 40 3c 44 18 79 3c b1 d1 73 3d dd 55 cb 3c
       0.011739003 0.015203539 0.05952615 0.024821216
000270 47 cf 6a bc 86 35 d0 bc 95 cc db 3e a4 44 32 bd
       -0.014331645 -0.025416147 0.4292952 -0.043522492
000280 27 ab 8f bc 41 16 9f bc 96 c5 20 3d 22 34 4d bd
       -0.017537666 -0.019419791 0.039250933 -0.050098546
000290 ca aa 53 3d d0 95 26 bb 6f 59 51 3d ac cc 48 be
       0.05167655 -0.0025418885 0.05111068 -0.19609326
0002a0 0f 7c dd bc 7b 08 32 3d 51 11 a7 bc 29 e9 a8 3e
       -0.027036695 0.04346512 -0.020394 0.32990387
0002b0 db 93 c1 3b e5 21 c6 3c 91 5b 27 3d 15 61 12 bd
       0.0059075183 0.024186084 0.04085881 -0.035737116
0002c0 dd e1 74 3b 10 98 8e 3c 95 64 40 3d 7c 0f 92 3c
       0.003736607 0.017406493 0.046970922 0.01782965
0002d0 a2 61 19 bf b0 2d bb 3f 94 1b 49 3d 43 67 ea bc
       -0.599146 1.4623318 0.049098566 -0.028613692
0002e0 b1 ba 87 bc c7 7a be 3c 34 b0 8e 3c 3c da b0 bc
       -0.016568514 0.023251904 0.017418005 -0.021588437
0002f0 08 1b 8c 3f 5a fb 05 3c b9 a9 85 3c 2a 86 b8 bd
       1.0945749 0.008177603 0.016316282 -0.09009965
000300 ad 89 c8 bc a4 12 3b 3e 59 46 f9 bd 75 03 40 bd
       -0.024479711 0.1826883 -0.12171621 -0.046878297
000310 6b 5e 0b bc c2 67 02 be 34 9b dc bc 92 d0 a8 bc
       -0.008506398 -0.12734893 -0.026929475 -0.020607267
000320 d2 ce bd bc 2e 37 f8 3f b1 85 0d bd de 50 90 bb
       -0.023169909 1.939184 -0.034551326 -0.0044041714
000330 6c fb 9b bd 5a 13 b4 bd d9 c6 60 3d 53 05 84 3d
       -0.07616314 -0.087927535 0.054877136 0.06446328
000340 39 07 c5 bc 86 8a aa 3c bd 44 9c bf 2b 31 04 3f
       -0.024051296 0.020818006 -1.2208477 0.51637524
000350 5d 74 27 3b 1f 2f da 3c 0c 90 1a 3c 2c 16 5f bd
       0.0025551536 0.026633797 0.0094337575 -0.054464504
000360 a7 1b 63 3f 36 52 a4 3c ef af 12 40 b6 bf 98 bc
       0.8871407 0.020058732 2.2919881 -0.018646102
000370 8e ba 2a 3c 82 93 e7 3c a0 c2 be 3e 44 78 99 be
       0.010420455 0.02826858 0.37257862 -0.29974568
000380 d0 00 a0 be 3a 44 18 3d 69 21 6d 3d bf c8 00 40
       -0.3125062 0.03717444 0.05789319 2.0122526
000390 02 50 54 3b e5 e8 81 bb 56 8e cb bc 24 fe cb 3f
       0.0032396321 -0.003964531 -0.024848145 1.5936933
0003a0 74 1d 96 ba 4f c5 b6 bc 68 00 53 3d de f8 39 bd
       -0.001145287 -0.022310881 0.05151406 -0.045403354
0003b0 8d 66 ba bc 1c ad 9f 3c 8e 0b 59 bd 79 cc 47 bd
       -0.022753978 0.019491725 -0.052989535 -0.048778985
0003c0 83 2a 0f be ae 83 8c 3f da 81 08 3e 74 1d 53 bd
       -0.1398106 1.0977685 0.13330784 -0.05154176
0003d0 2a 58 5c bc 13 23 54 3d 5e 9e 3d be bf d7 1b bc
       -0.013448754 0.051791262 -0.18517444 -0.009511887
0003e0 e8 ae d3 be a6 3a ba 3d 4d d3 9a 3d d5 1f 47 bc
       -0.4134438 0.090932176 0.07559834 -0.012153585
0003f0 39 c7 05 bd 07 e5 db 3e fc f2 34 3e dc 21 94 bd
       -0.032660697 0.42948171 0.17670816 -0.07233021

model_1/z_mean/BiasAdd/ReadVariableOp:0 f4 [30]
000000 a4 1a 3f 3e a2 64 65 be 6a af b5 bc 0f 19 46 3d
       0.18662506 -0.2240167 -0.02217837 0.04836374
000010 f1 41 a8 3d b3 d9 c8 3c e0 a7 bb bd c9 75 02 bd
       0.08215702 0.02451787 -0.09162879 -0.03185061
000020 55 49 2e 3c d4 63 48 bd 7c 35 b3 3b 8a 19 3d 3d
       0.010637601 -0.04892333 0.0054690223 0.046166934
000030 aa 1e ad 3d f4 ac d7 3e 3a e8 c2 3c ac e8 67 3d
       0.08453114 0.4212414 0.023792375 0.056618378
000040 57 b7 fb bc cd 36 bf be b0 a1 ef bb b5 18 67 bc
       -0.030727072 -0.37346497 -0.007312976 -0.014105012
000050 7b a2 07 3d e9 c7 a8 bd 27 34 c6 bb d9 7f 4b bc
       0.033113938 -0.08241255 -0.0060486975 -0.012420618
000060 41 fa 98 3d 13 c3 ca 3d d5 ec 79 3d 73 30 01 3d
       0.07469607 0.09900489 0.061016876 0.031540345
000070 db 9d 47 bd dc 85 d3 bc
       -0.048734527 -0.025820665

W0__27 f4 [1, 160, 7]
000000 6f a5 3e 3e 1f 56 da be 45 1c 3a bd b3 c5 6f c0
       0.18617795 -0.4264383 -0.045437116 -3.7464416
000010 ff 32 83 3e cd 5b b8 bd ea 0e 81 3e c7 27 09 bf
       0.25624844 -0.090018846 0.2520669 -0.5357632
000020 90 c6 37 3f e1 60 8c bf 5f b6 32 3f 4c 8d b0 bd
       0.7178736 -1.0967065 0.69809526 -0.086207
000030 4e b9 a7 bf 07 43 ad 3e 42 fa 3c be ea e8 03 3e
       -1.3103426 0.338402 -0.18454841 0.12881818
000040 ea e7 75 c0 a7 1c 60 c0 56 bc f4 3c 56 19 9c bf
       -3.84228 -3.5017488 0.029874962 -1.2195232
000050 ec c2 85 bf 13 2a d7 be 52 0d 31 be 4a ec 39 40
       -1.045011 -0.42024288 -0.17290238 2.905047
000060 e0 81 dd 3f 54 45 a6 3d 4f f9 02 bf 34 8e d0 3e
       1.730526 0.08118692 -0.51161665 0.40733492
000070 f9 51 9e 3e 9b b1 d4 be 30 0c e3 be b8 08 09 40
       0.30921915 -0.41541752 -0.44345236 2.1411572
000080 63 5c b1 bd 4e f3 89 be 02 12 73 3f 4f 32 7a be
       -0.086601995 -0.2694344 0.9494935 -0.24433254
000090 5a 81 b7 bc 5c a4 27 bf 6c d0 6a c0 44 74 28 3e
       -0.022400547 -0.6548517 -3.668971 0.16450602
0000a0 c1 b2 82 bf f3 46 33 3f 0c 73 c6 3c a1 b0 29 3e
       -1.0210801 0.70030135 0.02422478 0.16571285
0000b0 96 90 89 bf b5 96 50 be 16 92 0b be 9a 01 87 bf
       -1.0747249 -0.2036999 -0.13629946 -1.0547364
0000c0 02 a6 83 3e be 73 81 be 6b 86 f3 be d2 90 95 3f
       0.2571259 -0.25283617 -0.4756349 1.1684821
0000d0 27 60 c1 be 2f 36 a0 bd 78 58 69 bf d3 31 24 3e
       -0.3776867 -0.07822835 -0.9115062 0.16034631
0000e0 98 c7 85 bd 5f 25 8b 3e 7e 19 88 3f 21 06 b0 3f
       -0.0653221 0.2717695 1.063278 1.375187
0000f0 20 04 33 be e0 e7 91 3e 76 89 13 3d 53 70 70 3e
       -0.17482042 0.2849722 0.036019765 0.23480348
000100 91 30 bc 3d 0d 23 33 be da 3a c7 3e 85 0f c3 be
       0.09188951 -0.1749384 0.38912088 -0.38097778
000110 08 75 95 be 62 01 3a 3f ec d0 b0 3c ce 59 ac 3e
       -0.2919085 0.7265836 0.021583997 0.33662266
000120 af 30 86 3f d5 fd 05 40 a1 e6 21 3d b6 b7 a4 bd
       1.0483607 2.0936177 0.039526585 -0.080428526
000130 99 55 1f bf 4f 95 c6 bd a8 48 35 bf ad 71 9e bf
       -0.62239987 -0.09696447 -0.7081399 -1.2378441
000140 b6 a1 41 bf 94 58 83 be 06 8a 25 bf b3 bb dd 3f
       -0.75637376 -0.25653517 -0.6466373 1.7322906
000150 c2 ef 58 40 35 fe e3 3f 80 11 2a bf 7a 9c 9b 3f
       3.3896337 1.7811953 -0.6643295 1.2157128
000160 6a 11 4f 40 57 6c cb 3f 44 3f 34 c0 06 60 0a be
       3.2354379 1.5892438 -2.8163614 -0.13513193
000170 3c 75 c6 3d b2 6b 9a 3e 3d 4e 81 40 c5 36 8b 3c
       0.096903294 0.3016029 4.0408006 0.01699389
000180 bf af 8f be 88 03 7a be aa 9a 2e be f1 6f c0 3d
       -0.2806377 -0.2441541 -0.17051187 0.09396351
000190 db bd ca 3e b0 fb 37 3e 39 58 90 3e 0c 28 25 bf
       0.39597973 0.17967105 0.2819231 -0.6451423
0001a0 15 56 ac bd ad 30 0e be 50 cf 35 3f f7 de 8c 3f
       -0.08414856 -0.13885756 0.7101946 1.1005543
0001b0 98 78 90 bf 82 89 1c 3f c2 31 22 bf 4c d2 b0 be
       -1.1286802 0.6114732 -0.63357174 -0.34535444
0001c0 10 48 a8 3e 0b 42 94 be 29 a1 3a 40 bf c7 0f c0
       0.3286748 -0.28956637 2.9160864 -2.2465665
0001d0 34 33 41 be fd 1a 9d be d3 ee b3 be d5 48 b1 bd
       -0.18867189 -0.30684653 -0.35143146 -0.0865647
0001e0 47 92 e9 bc 69 5a 9e 3e ec 3a 25 bf 58 3f e8 3c
       -0.028512133 0.30928352 -0.6454303 0.028350517
0001f0 96 d5 5e bf 65 58 8b be 20 82 2e be e8 00 0a bf
       -0.87044656 -0.27215877 -0.17041826 -0.5390763
000200 54 9e 86 40 0c ea d9 bf 29 80 ba bd f0 d7 1a bf
       4.206827 -1.702455 -0.09106476 -0.60485744
000210 61 56 fb be a5 58 e7 bc e8 e9 35 3c 5b f4 ec be
       -0.4908934 -0.028240511 0.011103131 -0.46280178
000220 f3 25 1d c0 09 a1 1a 3d a8 4c 75 bf 22 86 93 3e
       -2.4554412 0.03775123 -0.95820093 0.28813273
000230 ed e8 e5 bd d1 08 97 be f5 f4 26 bf a5 13 98 40
       -0.11226068 -0.29498914 -0.65217525 4.752398
000240 c0 b7 2c 3e 9b b5 bb bf 0e 0a b3 bd a0 2d a1 be
       0.1686697 -1.4664797 -0.08742152 -0.31480122
000250 71 72 28 3f 7c cb 59 3f 95 73 7f 3f 0d f9 0d bf
       0.65799624 0.8507612 0.9978574 -0.55458146
000260 b5 c5 9b 3e ed b6 4e 3f 5f e7 05 3f 38 2a e9 bd
       0.30424276 0.8074787 0.5230617 -0.11385006
000270 8e 77 3c 3f fc bf a5 3e 28 44 11 be c2 7b b0 bd
       0.73619926 0.32373035 -0.14186156 -0.08617355
000280 f9 db 08 3e ba 60 6c bf ca 0e ae 40 cd fa 25 c0
       0.13365163 -0.92335093 5.4393053 -2.5934327
000290 c4 ac 62 c0 32 1d 2c 3f 67 9d b8 bf 26 fa d3 bf
       -3.5417948 0.6723205 -1.4423035 -1.6560714
0002a0 4c 93 c8 be 74 5e 30 3e f1 4a fe bd ac c8 b8 bd
       -0.3917488 0.17223531 -0.12416638 -0.0902265
0002b0 98 13 05 3e eb 53 43 be c4 83 b9 be e6 1d 3a 3f
       0.12995756 -0.19074981 -0.36233342 0.7270187
0002c0 28 07 fd be 7b 46 89 3e 93 f3 48 c0 62 82 6b bf
       -0.49419522 0.26811585 -3.1398666 -0.91995823
0002d0 48 df 56 3e b7 9d 71 bf 43 74 2d 3e 90 44 cb be
       0.20983613 -0.9438128 0.16938882 -0.39700747
0002e0 75 8f 8e c0 fb b9 0a c0 b4 17 39 3f e2 4b 56 3b
       -4.455012 -2.1676013 0.72301793 0.0032699038
0002f0 e9 e0 9a bd 35 cf 25 3e 85 82 a5 bf 19 6f 9b 40
       -0.075624295 0.16192324 -1.2930456 4.8573117
000300 cc 15 07 40 ca 26 0d 3d f8 ab d2 bc 3c f0 8e be
       2.1107054 0.03446082 -0.025716767 -0.2791766
000310 a2 84 36 3e 02 6f 7c 3c 75 be 72 bf a1 10 82 3e
       0.17824033 0.015407326 -0.94821864 0.25403312
000320 80 f0 d4 3b 3b 9e b0 be 10 f4 d7 be 98 1e bf 3d
       0.0064983964 -0.3449572 -0.42178392 0.09332007
000330 7d 3b 86 bd 00 7b b8 bf 17 c9 13 40 ba 24 05 be
       -0.06554315 -1.4412537 2.3091486 -0.13002291
000340 2a bf d5 be 6c 01 f7 3d fe 9d 01 3e 4c 74 5e 3f
       -0.4174741 0.12060818 0.12657925 0.86896205
000350 1d fd 95 bf 3f 7c 05 c0 ed 47 0a 3e 47 81 54 bf
       -1.1717869 -2.0857084 0.13504 -0.8300976
000360 64 11 4f bf 4a fa 70 be 5f 87 d8 3f 8b f8 38 c0
       -0.8088591 -0.23532978 1.6916312 -2.8901699
000370 47 20 ce 3f f3 07 a6 3d 45 00 2d 3f 38 02 3c 3d
       1.61036 0.08106985 0.67578536 0.045900553
000380 42 ee 01 3e 63 fc 8c 3e f7 f7 93 3f f4 7d 1b c0
       0.12688544 0.27536306 1.1560048 -2.4295626
000390 e9 32 37 3e 8c a3 a0 be cc 79 ae bf 49 50 61 3c
       0.17890514 -0.31374776 -1.363092 0.013752052
0003a0 d0 64 08 be fe f9 f8 3f da dd 26 c0 53 73 0e 3e
       -0.13319707 1.9451292 -2.6072907 0.1391118
0003b0 33 97 10 bf 5c 2a dd be 86 2a 17 3e 99 8c 03 bf
       -0.5648071 -0.4319638 0.14762315 -0.5138641
0003c0 f2 20 19 40 0f 85 e0 bf da 37 0c bd 67 a6 c6 be
       2.3926358 -1.7540606 -0.03423295 -0.3879883
0003d0 a9 bd 32 be 74 35 41 3e ea d6 de 3d f6 c6 5d 3f
       -0.17455162 0.18868047 0.10880835 0.86631715
0003e0 5d 9a 29 c0 65 18 17 3d f6 25 bf be 24 05 5c be
       -2.6500466 0.0368885 -0.3733365 -0.21486336
0003f0 34 ef 8f 3d d5 5c 83 bf fd 84 31 40 86 e1 68 c0
       0.07028046 -1.0262705 2.773742 -3.6387649

R0__28 f4 [1, 160, 40]
000000 68 f9 fb be a2 6e d9 bd 3e 8e ae bf 3a c7 93 3e
       -0.4921372 -0.10616805 -1.3637159 0.28862935
000010 29 8d 43 3f e6 7f 64 3e 13 d5 c5 bc 8b fa 25 3f
       0.7638727 0.22314414 -0.024149453 0.64835423
000020 e0 c1 5a bd ab 0c 45 bf a7 39 3b 3f 12 ff 1a 3e
       -0.05340755 -0.76972455 0.73134845 0.15136364
000030 c7 a8 fb 3e 30 8f 23 bf e4 f9 b8 3e 45 31 49 3f
       0.49152204 -0.6389036 0.3612815 0.78590804
000040 60 ad 86 bf b0 a9 45 bf 7c c1 11 bf cd 63 06 be
       -1.052166 -0.7721205 -0.5693586 -0.13124008
000050 4c d8 5f bf 0d 5d 15 3e 9c 21 c0 3e 5f 90 95 be
       -0.8743942 0.14586277 0.37525642 -0.2921171
000060 b1 03 03 be 24 99 f0 3b 4d 72 25 3d 62 70 a1 3f
       -0.12794377 0.0073424745 0.04039221 1.2612422
000070 1b d0 a1 3e e7 a6 92 bf c3 97 ef bf 2a 4a 47 3f
       0.31604084 -1.1457185 -1.8718189 0.7784754
000080 30 a6 8e 3f 4a 93 b6 be 0c 9f 34 3f fa d1 66 3f
       1.1144466 -0.35659248 0.70555186 0.9016415
000090 b7 d9 03 3f 9a 1c 81 bf d4 c6 2b 3f c8 87 87 be
       0.5150408 -1.0086854 0.6710026 -0.2647078
0000a0 7f fb 24 bf 4a 43 9e bf fd 33 ee 3f ed 2c af be
       -0.6444625 -1.2364285 1.8609616 -0.34213963
0000b0 f0 98 42 3f 97 6c 9f 3f 9b 5b e7 3e e9 35 01 c0
       0.76014614 1.2455014 0.45187077 -2.0189154
0000c0 90 5f 05 bf 06 d4 5d 3f df e8 e9 be ff 69 87 3f
       -0.5209894 0.8665165 -0.4568548 1.0579222
0000d0 77 86 1b c0 82 21 e0 bf 9f c4 50 be 74 7d 72 bf
       -2.430082 -1.7510226 -0.20387505 -0.94722676
0000e0 36 48 05 bf 94 ba fa 3e 73 13 de 3f be 4c 98 bf
       -0.5206331 0.48970473 1.7349685 -1.189842
0000f0 ed e6 f9 bf e3 ef c6 3f 01 70 72 bf 8a 6b ab 3e
       -1.9523598 1.5541958 -0.94702154 0.33480483
000100 9a 7e 31 3f a0 98 9a bf 40 a4 be bf ce 0a b1 3f
       0.69333804 -1.2077827 -1.4893875 1.3831422
000110 b2 c1 69 bf 76 36 f5 3f 0a cb f5 3d 8f c4 95 40
       -0.9131118 1.9157245 0.12001617 4.680244
000120 6a 9b 1b c0 d7 aa d1 3f da b7 7d bf b8 40 1c be
       -2.4313607 1.6380261 -0.9910866 -0.15259063
000130 a3 ed c3 bf 61 c2 dd be 77 9e 86 3f 5d 55 e8 be
       -1.5306896 -0.43312362 1.051711 -0.45377627
000140 c4 fc 62 bf c8 c4 88 be ec af c3 bf b5 f2 89 3e
       -0.8866694 -0.26712632 -1.5288062 0.26942983
000150 33 47 8c bf 7d 2a 6b 3f 37 24 25 3e 2e 30 78 3f
       -1.0959228 0.91861707 0.16127096 0.96948516
000160 60 01 11 bf 6a b5 e0 3e b4 d2 a9 3f 7e a8 b3 be
       -0.56642723 0.43888408 1.3267426 -0.35089487
000170 45 af 9e be 5b c4 9d 3f 4e 3d d4 3e 81 61 3e bf
       -0.30993095 1.2325548 0.41453022 -0.7436753
000180 64 c0 44 3e b0 51 0f bf 94 9a ce 3f 88 2d 5e bf
       0.19214016 -0.5598402 1.6140924 -0.86788225
000190 81 4d 87 3f ac 84 b7 bf 0e b4 65 bf c0 64 77 3f
       1.0570527 -1.4337363 -0.89727867 0.9663811
0001a0 29 52 c5 3f 96 c1 2c 3f 66 97 da 3d 53 fb 70 3f
       1.5415698 0.6748289 0.10673408 0.9413349
0001b0 8d 86 7e 3e 1d 13 0d bf 6a 05 ad 3e f8 23 72 bf
       0.24856015 -0.5510729 0.33793193 -0.94586134
0001c0 18 38 f2 be 94 ef 7d 3f 29 94 22 3f 60 cc fa be
       -0.4730842 0.9919369 0.63507324 -0.4898405
0001d0 cb 15 33 3f 4e a7 81 3f 21 91 f7 be 96 25 2a c0
       0.6995513 1.0129182 -0.48352912 -2.658544
0001e0 e8 0e 50 3f 7e cb 35 3f cb e5 2f 3f 3f 1a 69 3e
       0.81272745 0.7101363 0.6871001 0.22763918
0001f0 c6 c6 39 3e fa d2 76 bf 47 bd 62 3e a5 48 73 3f
       0.18142232 -0.96415675 0.22142516 0.9503272
000200 6c e2 58 be f8 45 12 bf 2b 17 d3 3d c7 cb 01 c0
       -0.21180123 -0.57138014 0.10307153 -2.0280626
000210 1c fb 32 bf ae f9 5a bd 74 d0 c0 3e 3f 2c a9 3f
       -0.6991441 -0.05346077 0.37659037 1.3216628
000220 4c 5a 4b be 99 36 8c 3e ac af e6 be 9b 90 6e bf
       -0.19858664 0.27385405 -0.45055902 -0.931894
000230 04 37 1a 3f 2b cd 4f 3f 32 e8 82 3f 9d 9e 4e bf
       0.602402 0.81172436 1.022711 -0.80710775
000240 45 8b 3f 3f 15 fc 03 bf f0 9b 99 be 88 06 2c 40
       0.74821883 -0.5155652 -0.30001783 2.6878986
000250 99 7b 4b 3d 51 af ae 3d d9 0a 01 bf c4 14 c8 3e
       0.04967842 0.08529533 -0.5040718 0.39078343
000260 a8 d3 45 be 8f 23 c3 be c2 9b 31 3f 81 76 68 3e
       -0.19319022 -0.38113067 0.6937829 0.22701456
000270 33 cd 59 3c 4a 82 94 3f f7 3e 89 be f6 0c 05 3f
       0.013293552 1.1602261 -0.2680585 0.519729
000280 fe 3d ae be c7 0c 54 be 41 28 26 40 45 83 0f 3f
       -0.3403167 -0.20707999 2.596207 0.56059676
000290 2b 15 8b bf b9 03 96 be 30 df c4 bf 41 71 a5 3f
       -1.0865835 -0.29299715 -1.5380611 1.2925187
0002a0 46 68 d9 bf 5f 51 74 3f 8b 01 62 bf 0e 14 36 3f
       -1.6984947 0.9543666 -0.88283604 0.7112435
0002b0 03 7e 27 c0 e6 cc 3d bf 4f d2 6a 3f fb 5d 41 3f
       -2.6170661 -0.74140775 0.91727155 0.7553403
0002c0 00 f2 45 bf b1 ce b2 3f 49 af 64 bf eb 5f 7f bd
       -0.7732239 1.3969327 -0.89329964 -0.062347334
0002d0 51 83 cc 3e 6f 98 ce bf 8b 5d 70 bf 83 48 13 3f
       0.39943936 -1.6140269 -0.93892735 0.5753252
0002e0 03 7b 95 3f ef 20 b5 bd a5 17 55 be 8b 59 d5 bf
       1.1678165 -0.08844172 -0.20809801 -1.6667951
0002f0 b8 1d 9c 3f 82 90 a7 3f 85 9b 87 be bc 0f a3 3f
       1.219657 1.3090975 -0.2648584 1.2739177
000300 71 76 29 3e 60 e2 db 3e 64 01 8a 3e 74 ac f5 3e
       0.16549088 0.42946148 0.26954186 0.47983134
000310 7e ea a9 bf 17 e8 0e 3f 99 fa c8 be b9 5b 51 bf
       -1.3274686 0.5582289 -0.3925369 -0.8178058
000320 2a a9 48 3d f7 84 04 3d 79 df 7e bc 96 10 83 be
       0.048989452 0.032353368 -0.01555621 -0.25598592
000330 0c 85 8a 3e bf 3b 42 bf c7 42 e4 be 7d ea f7 bf
       0.27054632 -0.75872415 -0.44582197 -1.9368435
000340 30 47 04 bf c7 05 a1 3e f8 5f 76 3e 42 16 1f bf
       -0.51671124 0.3144972 0.24060047 -0.6214334
000350 08 1d 9f 3e 3e 94 24 bf f2 53 7c 3e 49 ef 13 bf
       0.31076837 -0.642887 0.24641398 -0.57786995
000360 74 b9 ac bf 2d d2 2c 3f db b7 bc bd 7d 02 80 3f
       -1.3494096 0.675082 -0.09214755 1.0000759
000370 40 81 46 3f a6 c8 6a 3f 0a 58 fb 3e b9 f7 c8 3d
       0.7754097 0.91712415 0.49090606 0.09812874
000380 7f 59 06 be 01 1b c3 3f ec 15 a3 3e f0 c3 5f bf
       -0.13120078 1.5242616 0.31852663 -0.8740835
000390 f3 31 c2 bf a1 d0 64 b9 ce 01 91 be 4e 97 fa bd
       -1.5171493 -0.00021821495 -0.2832169 -0.1223589
0003a0 c1 47 58 bf c5 42 c4 bc 33 ce d5 be e1 7e 43 3f
       -0.8448449 -0.02395762 -0.4175888 0.76365477
0003b0 c9 01 1b 3f 67 11 30 bf 8c 94 c0 3e 71 bf e0 bf
       0.605496 -0.68776554 0.37613332 -1.7558423
0003c0 48 5a c7 3e 3b 46 00 3e d9 ac c5 be 5a a9 8f 3c
       0.38936067 0.12526791 -0.38608435 0.017536808
0003d0 18 9a 71 3e cd 58 24 bf 3c a9 2d bf 9b 1c b5 be
       0.23593938 -0.64198 -0.67836356 -0.35373387
0003e0 67 f9 81 3e 1e b5 05 be 0a 89 8f bd ba e5 03 40
       0.2538559 -0.13057372 -0.0700856 2.0608964
0003f0 b5 c3 16 be bc 95 94 be bb 6d 44 be e1 ad b8 3e
       -0.14723094 -0.29020488 -0.19182484 0.3607016

B0__29 f4 [1, 320]
000000 9b 86 e4 be da b5 83 be 84 4b 86 bf a4 77 bf be
       -0.44633946 -0.2572468 -1.0491796 -0.37395966
000010 1f 07 05 3f 71 de ea bc 05 50 d4 be 9c b7 85 bf
       0.5196399 -0.028670521 -0.414673 -1.0446658
000020 21 aa 6d 3f 82 22 e0 3f ef 46 25 bf 95 0f 1c bf
       0.9283772 1.7510531 -0.6456136 -0.60961276
000030 43 f0 71 bf 18 2c 15 bf bc d8 88 be 28 53 d6 be
       -0.94507235 -0.58270407 -0.26727855 -0.41860318
000040 b4 42 22 bf 2c 10 17 bf a3 01 54 bf 80 66 64 bf
       -0.6338303 -0.5900905 -0.82815 -0.892189
000050 46 dc 7b be fb 51 cb be 1a e5 55 bf 43 a2 82 bf
       -0.24595746 -0.39710984 -0.83552706 -1.0205768
000060 c9 1c dd be 1f f6 e8 be ef 26 22 bf cb 28 3e 3f
       -0.43186024 -0.45500275 -0.6334066 0.74280995
000070 d7 68 3b bf a7 08 2a bf 3a 05 7e bf bc 9c 04 bf
       -0.7320685 -0.6641945 -0.99226725 -0.5180166
000080 ed 83 4a bf 5e bc 59 bf bf 33 12 bf 75 5f 86 bf
       -0.7910755 -0.8505305 -0.5711021 -1.0497881
000090 68 4d 4c bf c1 69 96 3d b1 0d 8f bf ee 29 bb be
       -0.7980561 0.0734439 -1.1176053 -0.36555427
0000a0 f4 c3 ad 3e af 75 76 be 91 79 01 bf 48 0d 1b 3f
       0.33938563 -0.2406833 -0.5057612 0.6056714
0000b0 f9 52 8f 3f 57 f1 27 3f 7b 58 18 3e ea bc 2d bf
       1.1197196 0.6560263 0.14877503 -0.67866385
0000c0 86 9f c6 3e 46 90 ec 3f 0d dd 04 3f 76 e2 09 bf
       0.38793582 1.8481529 0.51899797 -0.53861177
0000d0 5d 87 99 bf 02 91 87 bf a9 1e f8 3c c3 c3 07 be
       -1.1994435 -1.0591128 0.030288057 -0.13258271
0000e0 fc ab a6 3d 84 45 36 3f df eb b6 be 52 14 85 bb
       0.08138272 0.7119982 -0.3572683 -0.0040612603
0000f0 6b 6c 39 3f 0f c6 c2 be b3 a7 a9 be 07 33 bd be
       0.7243106 -0.38041732 -0.33135757 -0.36952993
000100 f3 70 81 bf 2f 62 71 bf 53 ed 41 be 3d 96 8a be
       -1.0112594 -0.9429044 -0.18938188 -0.27067748
000110 90 7f b5 3e a7 ce 6f be bc 63 7c be 77 3d 80 bf
       0.35448885 -0.23418675 -0.2464742 -1.0018758
000120 d8 e4 9e be bb 72 5f bd 07 d4 0a be 9f df 92 bf
       -0.3103397 -0.054552775 -0.13557445 -1.1474494
000130 bc af f3 be 44 6e 6a 3e a9 85 92 be 19 99 5e bf
       -0.47595012 0.22893625 -0.286176 -0.8695236
000140 ee 24 34 3f f6 ef d6 3f b7 56 00 40 a6 9f d8 3f
       0.7036885 1.679198 2.0052927 1.6923721
000150 0a 99 69 3f d7 54 c5 3f b2 30 0c 3f 05 b1 b3 3f
       0.91249144 1.5416516 0.54761803 1.4038397
000160 1f 27 22 bf d1 8c 28 3f 25 8f 04 40 54 ba 72 3f
       -0.63340944 0.6583987 2.0712368 0.94815564
000170 29 1e 2f 3d a2 d0 a2 3f 67 11 c5 3f 2d 76 ac 3e
       0.042753372 1.271992 1.5395936 0.3368391
000180 92 31 a8 3f 18 92 72 3f 9c aa 85 3f 4b 2a 7c 3f
       1.3140128 0.9475417 1.0442691 0.98502034
000190 ba 44 c2 3f 5a 3a fd 3f 5c 59 44 3f 79 50 8f 3f
       1.5177224 1.9783432 0.7669885 1.1196433
0001a0 d7 c4 46 3f ca a3 93 3f bb 95 9a 3f a9 2e 9b 3e
       0.77644104 1.153436 1.2076944 0.30309036
0001b0 af 62 9f 3f cf 6b 15 3f 03 b6 2d 3e 27 5f 1d 3f
       1.2451991 0.5836763 0.16963963 0.61473316
0001c0 34 90 a4 3f 67 67 8c 3f de 29 d2 3f 98 42 ac 3d
       1.2856507 1.0969056 1.6419027 0.08411139
0001d0 1e 1c ea 3f 25 61 47 3f e3 66 7e 3f 11 df 05 3f
       1.8289831 0.77882606 0.9937574 0.522935
0001e0 0b 54 8b bd 88 bd 5c 3f ec a6 b7 be 8c 87 87 be
       -0.06803139 0.862267 -0.3586954 -0.26470602
0001f0 27 43 aa 3f 31 6e 20 3f f2 d2 03 3f 0b c6 00 3e
       1.3301743 0.6266814 0.5149375 0.12575547
000200 f6 50 8a 3f bf 34 80 bf c7 25 6d 3d 12 80 af be
       1.0805957 -1.0016097 0.057897355 -0.34277397
000210 4e c4 9b 3f ab a6 b9 3e 33 a2 e4 3e a1 ba ed bc
       1.2169282 0.3625997 0.44654998 -0.029019656
000220 26 96 82 3e 75 58 b0 bc 48 b2 3b be e0 f4 4c 3e
       0.2550518 -0.021526555 -0.18329728 0.20015287
000230 8c 7d 36 3f a6 e3 28 bf 4c 4a bb 3d 05 ee 13 3e
       0.7128532 -0.65972364 0.091450304 0.14446266
000240 99 9c 20 bf 38 17 4a bf af a9 de 3d 3d b3 11 be
       -0.6273895 -0.7894168 0.10872208 -0.1422853
000250 35 67 07 3f 53 08 09 bf d4 dc 3e bf 7b 5a 04 bf
       0.52891856 -0.53528327 -0.74555707 -0.5170056
000260 16 05 c3 3f 14 a2 76 be ed a1 98 3e cc 06 53 bf
       1.5235927 -0.24085265 0.2981104 -0.82432246
000270 66 60 09 be ea 54 85 3e c1 f4 74 bf 09 cc 3e bf
       -0.1341568 0.26041347 -0.95685965 -0.7453008
000280 00 00 00 00 00 00 00 00 00 00 00 00 00 00 00 00
       0.0 0.0 0.0 0.0
000290 00 00 00 00 00 00 00 00 00 00 00 00 00 00 00 00
       0.0 0.0 0.0 0.0
0002a0 00 00 00 00 00 00 00 00 00 00 00 00 00 00 00 00
       0.0 0.0 0.0 0.0
0002b0 00 00 00 00 00 00 00 00 00 00 00 00 00 00 00 00
       0.0 0.0 0.0 0.0
0002c0 00 00 00 00 00 00 00 00 00 00 00 00 00 00 00 00
       0.0 0.0 0.0 0.0
0002d0 00 00 00 00 00 00 00 00 00 00 00 00 00 00 00 00
       0.0 0.0 0.0 0.0
0002e0 00 00 00 00 00 00 00 00 00 00 00 00 00 00 00 00
       0.0 0.0 0.0 0.0
0002f0 00 00 00 00 00 00 00 00 00 00 00 00 00 00 00 00
       0.0 0.0 0.0 0.0
000300 00 00 00 00 00 00 00 00 00 00 00 00 00 00 00 00
       0.0 0.0 0.0 0.0
000310 00 00 00 00 00 00 00 00 00 00 00 00 00 00 00 00
       0.0 0.0 0.0 0.0
000320 00 00 00 00 00 00 00 00 00 00 00 00 00 00 00 00
       0.0 0.0 0.0 0.0
000330 00 00 00 00 00 00 00 00 00 00 00 00 00 00 00 00
       0.0 0.0 0.0 0.0
000340 00 00 00 00 00 00 00 00 00 00 00 00 00 00 00 00
       0.0 0.0 0.0 0.0
000350 00 00 00 00 00 00 00 00 00 00 00 00 00 00 00 00
       0.0 0.0 0.0 0.0
000360 00 00 00 00 00 00 00 00 00 00 00 00 00 00 00 00
       0.0 0.0 0.0 0.0
000370 00 00 00 00 00 00 00 00 00 00 00 00 00 00 00 00
       0.0 0.0 0.0 0.0
000380 00 00 00 00 00 00 00 00 00 00 00 00 00 00 00 00
       0.0 0.0 0.0 0.0
000390 00 00 00 00 00 00 00 00 00 00 00 00 00 00 00 00
       0.0 0.0 0.0 0.0
0003a0 00 00 00 00 00 00 00 00 00 00 00 00 00 00 00 00
       0.0 0.0 0.0 0.0
0003b0 00 00 00 00 00 00 00 00 00 00 00 00 00 00 00 00
       0.0 0.0 0.0 0.0
0003c0 00 00 00 00 00 00 00 00 00 00 00 00 00 00 00 00
       0.0 0.0 0.0 0.0
0003d0 00 00 00 00 00 00 00 00 00 00 00 00 00 00 00 00
       0.0 0.0 0.0 0.0
0003e0 00 00 00 00 00 00 00 00 00 00 00 00 00 00 00 00
       0.0 0.0 0.0 0.0
0003f0 00 00 00 00 00 00 00 00 00 00 00 00 00 00 00 00
       0.0 0.0 0.0 0.0
